…
user_tz":-180,"elapsed":12042,"user":{"displayName":"Timur Vankov","photoUrl":"","userId":"01942967826365284490"}},"outputId":"dcf91652-aff6-4b71-9281-4b8204b7e7fe"},"source":["generator = Generator(nz).to(device)\n","discriminator = Discriminator().to(device)\n","\n","print('##### GENERATOR #####')\n","print(generator)\n","print('######################')\n","print('\\n##### DISCRIMINATOR #####')\n","print(discriminator)\n","print('######################')"],"execution_count":5,"outputs":[{"output_type":"stream","text":["##### GENERATOR #####\n","Generator(\n","  (main): Sequential(\n","    (0): Linear(in_features=128, out_features=256, bias=True)\n","    (1): LeakyReLU(negative_slope=0.2)\n","    (2): Linear(in_features=256, out_features=512, bias=True)\n","    (3): LeakyReLU(negative_slope=0.2)\n","    (4): BatchNorm1d(512, eps=1e-05, momentum=0.1, affine=True, track_running_stats=True)\n","    (5): Linear(in_features=512, out_features=1024, bias=True)\n","    (6): LeakyReLU(negative_slope=0.2)\n","    (7): Linear(in_features=1024, out_features=784, bias=True)\n","    (8): BatchNorm1d(784, eps=1e-05, momentum=0.1, affine=True, track_running_stats=True)\n","    (9): Tanh()\n","  )\n",")\n","######################\n","\n","##### DISCRIMINATOR #####\n","Discriminator(\n","  (main): Sequential(\n","    (0): Linear(in_features=784, out_features=1024, bias=True)\n","    (1): LeakyReLU(negative_slope=0.2)\n","    (2): Linear(in_features=1024, out_features=512, bias=True)\n","    (3): LeakyReLU(negative_slope=0.2)\n","    (4): Linear(in_features=512, out_features=256, bias=True)\n","    (5): LeakyReLU(negative_slope=0.2)\n","    (6): Linear(in_features=256, out_features=1, bias=True)\n","    (7): Sigmoid()\n","  )\n",")\n","######################\n"],"name":"stdout"}]},{"cell_type":"code","metadata":{"id":"fKztVeV6Rui6","executionInfo":{"status":"ok","timestamp":1627080151727,"user_tz":-180,"elapsed":11,"user":{"displayName":"Timur Vankov","photoUrl":"","userId":"01942967826365284490"}}},"source":["# loss\n","criterion = nn.BCELoss()
…
